mnist_model_fully_connected.pt (torch, 410007 bytes, 4 tensors)

weight f4 [128, 784]
0.029524539 -0.0065959916 -0.03499748 0.010275181 0.03306799 0.03104734 -0.035178065 0.03214631
0.010838918 -0.032885548 0.034286972 0.0019782968 0.004892988 0.013753444 0.010714672 -0.02134462
0.020449877 0.025263056 -0.018410351 0.017258234 -0.00635048 -0.023161229 -0.01373045 -0.0041809976
-0.01964582 0.020075407 0.021033224 -0.016925652 -0.022170514 6.366521e-06 0.007818669 0.021394163
-0.0046821423 -0.022876775 -8.346972e-05 0.027103003 0.014145688 0.030345697 0.0028757923 -0.023696616
-0.0065760016 -0.032313824 0.03157284 -0.00045888376 0.014201096 0.006777208 -0.018659005 0.00281682
0.010071212 -0.034855545 -0.024428932 0.034908075 0.017784663 0.017311245 -0.01441285 -0.03361085
-0.014531963 -0.022142727 -0.013658686 0.0351918 0.026711842 0.024733763 -0.029732568 0.013570382
-0.02091818 -0.00794542 0.023939095 -0.0068203625 0.033016168 0.013015422 -0.016756803 -0.014029421
0.012329281 -0.01578759 -0.041852932 0.0052552563 0.012989762 0.016085893 -0.0014786068 0.0056291996
0.009383239 -0.024320861 0.0076174624 -0.009508537 0.0050391294 0.00898996 -0.02984842 0.032587584
0.03144606 -0.03192979 -0.009196682 0.014260216 -0.010280004 -0.005105795 -0.0425872 0.0070425672
-0.0633937 -0.008711423 -0.063468225 -0.04856023 -0.101518355 -0.08271887 -0.09488389 -0.0072600907
-0.062094335 -0.046143226 0.00062266627 -0.007962649 -0.004155874 -0.019432534 -0.018617855 -0.027034437
-0.035658382 -0.024011765 0.019077992 0.006945084 -0.02074778 0.025636816 0.00094916404 -0.027624179
-0.034881692 -0.01354255 -0.06645165 -0.07021191 -0.126798 -0.049227268 -0.08705979 -0.087175
-0.028832912 0.016243273 0.022877019 0.010430894 -0.015162642 -0.023084223 -0.031106198 -0.039132755
-0.024060743 -0.019429974 -0.00062932627 0.03186582 0.009938613 -0.02930844 0.013306126 -0.0054053273
-0.024587091 0.017924102 -0.020236889 -0.04356118 0.06504549 0.03571667 -0.09037962 -0.040872257
-0.042197317 -0.034613814 -0.004849385 0.014559446 0.063732825 0.01045764 -0.015845593 -0.0021945438
-0.013873952 -0.031973306 0.05665466 -0.0024211623 0.021128966 -0.01809688 0.03361881 -0.023139236
-0.034922957 -0.022821873 0.021880956 0.019921724 0.0158152 0.01705749 -0.021696823 -0.013431662
0.0006974633 -0.011525908 -0.020946054 0.044683952 0.10082089 0.048371904 -0.018313129 -0.03096218
-0.053836964 0.053997476 0.008803333 0.016464634 -0.027507324 0.089737214 0.046994023 0.007211058
0.025766874 -0.014939683 -0.0037203054 -0.005176059 0.004590881 -0.01669876 0.008412913 0.022736654
0.025720317 0.009329183 0.0046077487 -0.017300785 0.013364522 0.015272679 -0.03960738 -0.09217904
0.022237582 0.021496572 -0.0471985 -0.054454092 0.008908888 -0.0008975555 0.12373143 0.08198376
0.05864049 0.14639845 0.12731837 0.055760197 -0.035769098 0.014224754 -0.028792689 -0.015438672
-0.014590854 -0.01020681 0.026830072 0.0221466 0.11175525 0.08599834 0.035889782 0.09808977
0.082218826 0.035294425 0.0015373721 -0.0068995403 0.037171308 0.080186866 0.036399364 0.0079863025
-0.001012047 0.025132535 0.036802743 0.09966877 0.100719936 0.020555979 0.09431449 0.094716266
-0.037717644 -0.041270338 0.0067763184 -0.01939615 -0.010354036 -0.011981603 0.017983597 0.024819048
00000000: 72dd f13c 3023 d8bb 8559 0fbd 3c59 283c
00000010: 4d72 073d fe56 fe3c e016 10bd d9ab 033d
00000020: b895 313c ffb2 06bd 7f70 0c3d 50a6 013b
00000030: 5c55 a03b 2056 613c 978c 2f3c eada aebc
00000040: 8086 a73c 78f4 ce3c 4ed1 96bc 2461 8d3c
00000050: b017 d0bb 9ebc bdbc aef5 60bc c000 89bb
00000060: 45f0 a0bc 2e75 a43c de4d ac3c aaa7 8abc
00000070: f09e b5bc 00a0 d536 e019 003c d042 af3c
00000080: a86c 99bb 1368 bbbc 770c afb8 1e07 de3c
00000090: 51c3 673c 8a97 f83c ca77 3c3b 681f c2bc
000000a0: 807b d7bb 805b 04bd 8652 013d 5696 f0b9
000000b0: b7ab 683c 5713 de3b c5da 98bc 669a 383b
000000c0: ba01 253c b0c4 0ebd 2f1f c8bc c5fb 0e3d
000000d0: 24b1 913c 50d0 8d3c e023 6cbc 88ab 09bd
000000e0: 7817 6ebc aa64 b5bc aec8 5fbc 4725 103d
000000f0: cbd2 da3c 769e ca3c b791 f3bc 4f56 5e3c
00000100: 9a5c abbc 822d 02bc ec1b c43c 597d dfbb
00000110: f63b 073d a33e 553c 9045 89bc a8db 65bc
00000120: c100 4a3c fa54 81bc fb6d 2bbd 4934 ac3b
00000130: 03d3 543c 90c6 833c d0cd c1ba 2675 b83b
00000140: 28bc 193c 8b3c c7bc e89b f93b b2c9 1bbc
00000150: 481f a53b a04a 133c ac84 f4bc 8f7a 053d
00000160: 95cd 003d d0c8 02bd aead 16bc aea3 693c
00000170: 766d 28bc 834e a7bb ea6f 2ebd 56c5 e63b
00000180: 8ed4 81bd 5bba 0ebc a1fb 81bd 17e7 46bd
00000190: dbe8 cfbd 8368 a9bd 7c52 c2bd 0ee6 edbb
000001a0: a156 7ebd ae00 3dbd 6d3a 233a c575 02bc
000001b0: ff2d 88bb fa30 9fbc 7984 98bc 5377 ddbc
000001c0: 860e 12bd 52b4 c4bc 7349 9c3c 9693 e33b
000001d0: 40f7 a9bc 4d04 d23c 52d1 783a 1a4c e2bc
000001e0: 1be0 0ebd 92e1 5dbc cd17 88bd 43cb 8fbd
000001f0: 56d7 01be 88a2 49bd 674c b2bd ce88 b2bd
00000200: 0033 ecbc 9d10 853c 9668 bb3c 57e6 2a3c
00000210: bb6c 78bc 201b bdbc 6dd2 febc ab49 20bd
00000220: 091b c5bc 9c2b 9fbc 5ff9 24ba bc85 023d
00000230: 90d5 223c 4118 f0bc f001 5a3c 2c1f b1bb
00000240: de6a c9bc 91d5 923c d5c7 a5bc 356d 32bd
00000250: 9236 853d a54b 123d f318 b9bd ab69 27bd
00000260: 18d7 2cbd 37c7 0dbd 97e7 9ebb be8a 6e3c
00000270: 5b86 823d 8556 2b3c 9ece 81bc 56d2 0fbb
00000280: 934f 63bc 71f6 02bd b70e 683d 5dac 1ebb
00000290: a716 ad3c e83f 94bc e1b3 093d 7f8e bdbc
000002a0: 600b 0fbd f0f4 babc b13f b33c e232 a33c
000002b0: e18e 813c 26bc 8b3c 89bd b1bc 7910 5cbc
000002c0: f8d5 363a 29d7 3cbc 0f97 abbc 8506 373d
000002d0: 2f7b ce3d 9e21 463d 6a05 96bc 66a4 fdbc
000002e0: 2684 5cbd 752c 5d3d db3b 103c d7e0 863c
000002f0: 0a57 e1bc 25c8 b73d ce7c 403d bd4a ec3b
00000300: 0d15 d33c 92c5 74bc 5ed0 73bb ee9b a9bb
00000310: 1a6f 963b d7cb 88bc 51d6 093c 3842 ba3c
00000320: 6ab3 d23c 6ed9 183c 99fc 963b 60ba 8dbc
00000330: def6 5a3c 423a 7a3c 593b 22bd 5dc8 bcbd
00000340: 972b b63c 9419 b03c 3753 41bd 410b 5fbd
00000350: 96f6 113c ee49 6bba e766 fd3d 1ae7 a73d
00000360: 0331 703d 7ae9 153e bf5f 023e ce64 643d
00000370: 9e82 12bd f10e 693c a5de ebbc 7cf2 7cbc
00000380: 7a0e 6fbc 773a 27bc bdca db3c c96c b53c
00000390: f0df e43d e61f b03d 2a01 133d 4ae3 c83d
000003a0: 5862 a83d e390 103d a681 c93a 8a15 e2bb
000003b0: f140 183d 0339 a43d 8017 153d fbd8 023c
000003c0: aaa6 84ba bfe2 cd3c 79be 163d 241f cc3d
000003d0: 4146 ce3d 0365 a83c f527 c13d 9afa c13d
000003e0: d17d 1abd 160b 29bd e10b de3b ade4 9ebc
000003f0: faa3 29bc 7c4e 44bc 5652 933c 5151 cb3c

bias f4 [128]
-0.11232155 -0.023853632 0.044954494 0.019272022 0.06839692 -0.014796781 -0.0010019446 -0.11229176
0.11687147 0.029924132 -0.09654077 0.06622996 0.049753085 0.06529688 -0.008131498 0.12322851
0.090446874 0.081757955 -0.012138051 0.07240098 -0.017286977 -0.12417982 -0.07053458 0.106592186
0.06726234 -0.023306252 0.036645956 -0.039776232 -0.14683113 -0.06873095 0.08868299 -0.13624685
0.12635429 0.17376131 0.026325783 0.11565344 0.01690947 0.066101976 0.032486357 -0.030262817
-0.05759399 0.022325207 -0.034832507 -0.080235615 0.010348594 0.022086337 -0.05314132 -0.020540893
0.058634933 -0.016681066 0.3359251 0.21851984 -0.018894428 -0.050281238 0.028247764 0.041566115
-0.006317806 0.012215261 0.098318905 0.00035607556 -0.100729026 -0.09070535 0.04462496 0.02888038
0.1471766 0.108742185 0.110881545 0.2306317 0.08517298 0.05702833 0.18599428 -0.15604268
0.17301394 0.1829084 0.13073327 0.015212622 0.14748129 0.08722641 0.050946016 0.08096483
0.032832395 0.22421062 0.110032246 0.04108131 0.039205104 -0.04400759 0.13545999 0.035490453
0.055951208 -0.036921628 0.024087783 0.07714492 -0.0656081 -0.06433687 0.021090439 0.12360978
0.0034157373 -0.066583544 0.033003703 -0.17830011 0.068403125 0.050457094 0.11123499 0.0023600548
0.11683419 -0.039750103 0.049810532 -0.03968469 0.04103197 0.0044340044 0.16136909 -0.10222193
0.13881348 -0.04385736 0.04499187 0.011382868 -0.050932046 0.12267142 0.26477206 0.08895248
-0.015801597 0.035286035 0.1676101 -0.04842736 0.05980046 0.0654461 0.060632985 0.039700836
00000000: d708 e6bd b168 c3bc 3422 383d 5ce0 9d3c
00000010: af13 8c3d 336e 72bc af53 83ba 39f9 e5bd
00000020: 4f5a ef3d 7423 f53c 2bb7 c5bd 93a3 873d
00000030: e4c9 4b3d 5fba 853d f939 05bc 3b5f fc3d
00000040: 363c b93d b770 a73d adde 46bc f746 943d
00000050: 6b9d 8dbc fd51 febd 6f74 90bd 014d da3d
00000060: d6c0 893d c1ec bebc 121a 163d 67ec 22bd
00000070: e65a 16be d0c2 8cbd 6d9f b53d 4b84 0bbe
00000080: 0563 013e 7cee 313e 2ba9 d73c b6db ec3d
00000090: bb85 8a3c 7960 873d 6a10 053d bae9 f7bc
000000a0: ade7 6bbd 5ae3 b63c 88ac 0ebd 9252 a4bd
000000b0: 268d 293c 68ee b43c b6aa 59bd 6045 a8bc
000000c0: 2f2b 703d bba6 88bc 60fe ab3e aac3 5f3e
000000d0: 7dc8 9abc b3f3 4dbd db67 e73c 3b41 2a3d
000000e0: 9905 cfbb 8522 483c 6c5b c93d a7af ba39
000000f0: 054b cebd bac3 b9bd a9c8 363d 8c96 ec3c
00000100: 76b5 163e 39b4 de3d dd15 e33d b72a 6c3e
00000110: 2c6f ae3d 8a96 693d 4975 3e3e a7c9 1fbe
00000120: 912a 313e 574c 3b3e f1de 053e 5c3e 793c
00000130: 5605 173e c3a3 b23d c5ac 503d e4d0 a53d
00000140: 437b 063d 7897 653e 9658 e13d e044 283d
00000150: 8895 203d 4d41 34bd 06b6 0a3e 705e 113d
00000160: 182d 653d 223b 17bd be53 c53c 28fe 9d3d
00000170: 8a5d 86bd 0dc3 83bd dbc5 ac3c 2027 fd3d
00000180: 90da 5f3b f45c 88bd e42e 073d 4e94 36be
00000190: f016 8c3d 19ac 4e3d 2ccf e33d 26ab 1a3b
000001a0: c446 ef3d 01d1 22bd 2106 4c3d 6a8c 22bd
000001b0: 2411 283d 204b 913b f03d 253e bb59 d1bd
000001c0: 1f25 0e3e c6a3 33bd 6549 383d 357f 3a3c
000001d0: 1f9e 50bd 273b fb3d 3490 873e b82c b63d
000001e0: 5a72 81bc 1788 103d fba1 2b3e c45b 46bd
000001f0: 54f1 743d 9b08 863d 4b5a 783d 589d 223d

weight f4 [10, 128]
-0.55018854 -0.05372004 0.3332767 0.08460934 0.54129 -0.00038108535 -0.16182874 0.36054358
-0.061212942 -0.1392792 -0.38684666 -0.49630052 0.51415074 0.030645728 0.08154139 -0.23326819
-0.08695216 -0.24423553 -0.072216295 -0.124582656 0.24239062 0.23893993 -0.18022236 0.12650736
-0.3957142 -0.41310883 0.082212895 0.018048493 -0.61418855 0.11431168 0.5704124 0.3935081
0.50582564 0.02552974 0.30548677 -0.36643896 0.22578138 0.27588248 0.09883963 -0.03999012
0.032054707 -0.108861014 -0.428234 -0.253522 -0.5631233 0.10069454 0.15981668 0.3308774
-0.051454306 0.42495352 -0.12233698 -0.22839917 0.46234038 0.3900873 0.36090612 0.18371591
0.13502942 0.05742522 -0.35221115 -0.04696657 0.29742265 -0.33320466 0.02275916 0.12129709
0.053148676 0.20465544 0.18172908 -0.46155375 0.22516195 -0.25493947 0.08605085 -0.12856065
-0.28195733 0.661579 -0.02388154 -0.1851179 0.1809614 0.024063757 -0.26630643 -0.52320683
-0.7102942 0.5556433 -0.4243934 -0.3452133 -0.11575512 -0.119364314 0.33159414 -0.063778155
-0.21108194 0.4243887 0.27086246 0.36778092 0.38877442 -0.2610167 -0.057409436 -0.28899348
0.09009532 -0.11878903 0.08204291 0.15964685 -0.05605915 -0.30308127 0.07705454 0.011358955
-0.3548257 -0.1824745 -0.050745178 -0.4545685 -0.4145158 -0.56347626 -0.345698 -0.060467727
-0.31831303 0.09300411 -0.37496668 -0.03439947 -0.2993054 -0.22635311 -0.051746584 -0.32624078
-0.042970743 0.008360053 -0.47964793 0.079358384 -0.19057052 -0.22584738 0.23679177 -0.0274555
0.40130264 -0.40770805 0.2898091 -0.363439 -0.2702063 0.50770515 0.0683451 -0.20686407
0.10413753 -0.37608385 0.26885468 0.39753836 -0.40652797 -0.12324836 0.15249619 -0.2978275
0.37989053 -0.30548388 0.0368751 0.1467087 -0.25229293 0.22787903 0.22091316 -0.020277966
0.26033866 -0.26742262 -0.10931838 0.44330722 0.3105717 -0.055517007 -0.46564007 -0.032511234
-0.29697078 0.9490328 -0.6390221 0.24737282 -0.37267998 -0.23557541 -0.46742287 -0.20170209
0.095393986 0.8017434 0.024456557 0.19081435 0.47783116 -0.038771316 -0.2287193 -0.18612951
0.30467224 -0.0070313774 0.5706451 -0.2365894 -0.32343695 0.29319635 0.07780311 0.1942439
-0.020813307 -0.0072554857 -0.41076967 0.04515405 -0.22327101 -0.04970959 0.077345274 -0.017147595
0.33014497 -0.32359833 0.012884033 -0.5291309 -0.3540334 0.26649153 -0.1542693 -0.23830803
-0.2560887 -0.28391445 -0.19281247 0.25578457 -0.074143715 -0.14290409 -0.023487015 -0.32513943
0.58702606 0.21505265 0.09639959 0.31317976 -0.060781952 -0.061202556 -0.0997625 0.24289106
0.7228221 -0.46422163 -0.17925893 -0.13905925 0.26415464 0.3203818 -0.055006377 0.23517264
-0.44139433 -0.04483001 -0.08356345 -0.5730585 0.08925576 0.18503734 -0.051291164 0.18842435
0.22430804 0.48061228 -0.17645101 0.69634676 -0.40913147 -0.18939762 0.056593955 -0.14991271
-0.11368177 -0.29829443 -0.01766407 -0.035968322 -0.024555141 -0.5477824 -0.048679635 0.41152656
-0.08980525 -0.42222577 0.48738366 0.016999695 -0.038192857 -0.1265175 -0.33202064 0.03268427
00000000: 28d9 0cbf 8b09 5cbd 3ea3 aa3e a947 ad3d
00000010: fb91 0a3f 69cc c7b9 6fb6 25be 2b99 b83e
00000020: 6cba 7abd 359f 0ebe c410 c6be 1a1b febe
00000030: 629f 033f c00c fb3c 2cff a63d dbdd 6ebe
00000040: f913 b2bd e118 7abe 23e6 93bd 3125 ffbd
00000050: 3f35 783e abac 743e 368c 38be 258b 013e
00000060: 0d9b cabe 0083 d3be 3c5f a83d 6fda 933c
00000070: 763b 1dbf 3e1c ea3d 8c06 123f e579 c93e
00000080: ca7d 013f bf23 d13c c368 9c3e e39d bbbe
00000090: 3c33 673e 7840 8d3e 6f6c ca3d aecc 23bd
000000a0: cc4b 033d 86f2 debd 7d41 dbbe a3cd 81be
000000b0: d928 10bf f038 ce3d fca6 233e c368 a93e
000000c0: c0c1 52bd 8293 d93e d08b fabd 79e1 69be
000000d0: e1b7 ec3e 86b9 c73e b0c8 b83e 0620 3c3e
000000e0: 2745 0a3e b536 6b3d 0555 b4be 0560 40bd
000000f0: c847 983e cd99 aabe 6b71 ba3c 9c6a f83d
00000100: 6db2 593d 3291 513e 3017 3a3e c650 ecbe
00000110: db90 663e 6d87 82be 6e3b b03d 67a5 03be
00000120: b65c 90be 3e5d 293f 38a3 c3bc 8c8f 3dbe
00000130: f24d 393e 5b21 c53c 5159 88be e2f0 05bf
00000140: d7d5 35bf a43e 0e3f 174a d9be ccbf b0be
00000150: 0511 edbd 4775 f4bd b5c6 a93e 1f9e 82bd
00000160: dd25 58be 7a49 d93e 7cae 8a3e c84d bc3e
00000170: 710d c73e fba3 85be 2826 6bbd f4f6 93be
00000180: e583 b83d aa47 f3bd 1d06 a83d 777a 233e
00000190: 479e 65bd 782d 9bbe c5ce 9d3d e91a 3a3c
000001a0: b7ab b5be 98da 3abe 2dda 4fbd 34bd e8be
000001b0: 6a3b d4be fb3f 10bf 54ff b0be 02ad 77bd
000001c0: edf9 a2be f078 be3d a2fb bfbe 75e6 0cbd
000001d0: 8f3e 99be 1cc9 67be 3af4 53bd 0809 a7be
000001e0: 1702 30bd 9bf8 083c 6a94 f5be a686 a23d
000001f0: eb24 43be 8944 67be 8b79 723e 5bea e0bc
00000200: 8a77 cd3e 1cbf d0be dc61 943e ad14 babe
00000210: 7b58 8abe f7f8 013f 84f8 8b3d 2dd4 53be
00000220: 0f46 d53d 108e c0be 52a7 893e 268a cb3e
00000230: 6f24 d0be a369 fcbd f627 1c3e d97c 98be
00000240: 0381 c23e 6268 9cbe 580a 173d ce3a 163e
00000250: 8a2c 81be 1f59 693e 0f37 623e fa1d a6bc
00000260: 1c4b 853e 9eeb 88be 51e2 dfbd 2af9 e23e
00000270: 4103 9f3e cd65 63bd 6068 eebe 802a 05bd
00000280: 8e0c 98be d0f3 723f f496 23bf 4d4f 7d3e
00000290: e9cf bebe ae3a 71be 0d52 efbe fe8a 4ebe
000002a0: ec5d c33d 0e3f 4d3f 1e59 c83c d664 433e
000002b0: 49a6 f43e acce 1ebd 6435 6abe bc98 3ebe
000002c0: 00fe 9b3e 7867 e6bb cc15 123f 7e44 72be
000002d0: 8799 a5be d51d 963e 3d57 9f3d dfe7 463e
000002e0: ab80 aabc 6dbf edbb 6750 d2be 74f3 383d
000002f0: 28a1 64be 489c 4bbd 3367 9e3d 1d79 8cbc
00000300: c308 a93e aeae a5be 8d17 533c 1f75 07bf
00000310: de43 b5be 9471 883e c5f8 1dbe 0507 74be
00000320: 0f1e 83be 3c5d 91be a270 45be 32f6 823e
00000330: a9d8 97bd 7355 12be d767 c0bc ad78 a6be
00000340: 5747 163f c336 5c3e 266d c53d 1959 a03e
00000350: 7ff6 78bd 88af 7abd 4850 ccbd 6fb8 783e
00000360: df0a 393f 75ae edbe a78f 37be 8c65 0ebe
00000370: 473f 873e 1509 a43e 5e4e 61bd 19d1 703e
00000380: 70fe e1be ac9f 37bd 5023 abbd f6b3 12bf
00000390: b9cb b63d 6e7a 3d3e af16 52bd 50f2 403e
000003a0: 02b1 653e d012 f63e 93af 34be c843 323f
000003b0: ae79 d1be 73f1 41be 10cf 673d b882 19be
000003c0: fdd1 e8bd 0cba 98be 3db4 90bc 8553 13bd
000003d0: dd27 c9bc 783b 0cbf 4c64 47bd 9cb3 d23e
000003e0: d1eb b7bd fa2d d8be 5a8a f93e f242 8b3c
000003f0: 1d70 1cbd ce8d 01be 9cfe a9be f1df 053d

bias f4 [10]
-0.28506982 0.22562629 -0.096937366 -0.16094135 0.1519255 0.2630138 -0.08159077 0.040274758
0.17111337 -0.017529998
00000000: acf4 91be 940a 673e 1987 c6bd cfcd 24be
00000010: 5c92 1b3e bfa9 863e 1019 a7bd 25f7 243d
00000020: 5838 2f3e 129b 8fbc
